…
hotoUrl":"","userId":"05761503287783464441"}},"outputId":"b3ea3547-c4de-4d1c-b597-467c9bc7c210"},"source":["model.summary()"],"execution_count":131,"outputs":[{"output_type":"stream","text":["Model: \"functional_27\"\n","_________________________________________________________________\n","Layer (type)                 Output Shape              Param #   \n","=================================================================\n","input_18 (InputLayer)        [(None, 13)]              0         \n","_________________________________________________________________\n","dense_25 (Dense)             (None, 20)                280       \n","_________________________________________________________________\n","dense_26 (Dense)             (None, 15)                315       \n","_________________________________________________________________\n","dense_27 (Dense)             (None, 10)                160       \n","_________________________________________________________________\n","dense_28 (Dense)             (None, 8)                 88        \n","_________________________________________________________________\n","dense_29 (Dense)             (None, 7)                 63        \n","_________________________________________________________________\n","dense_30 (Dense)             (None, 6)                 48        \n","_________________________________________________________________\n","dense_31 (Dense)             (None, 5)                 35        \n","_________________________________________________________________\n","dense_32 (Dense)             (None, 4)                 24        \n","_________________________________________________________________\n","dense_33 (Dense)             (None, 3)                 15        \n","_________________________________________________________________\n","dense_34 (Dense)             (None, 2)                 8         \n","_________________________________________________________________\n","dense_35 (Dense)             (None, 1)                 3         \n","=================================================================\n","Total params: 1,039\n","Trainable params: 1,039\n","Non-trainable params: 0\n","_________________________________________________________________\n"],"name":"stdout"}]},{"cell_type":"code","metadata":{"colab":{"base_uri":"https://localhost:8080/"},"id":"MnpltIHrB0pb","executionInfo":{"status":"ok","timestamp":16071
…
