…
"안녕구름아","photoUrl":"","userId":"05761503287783464441"}},"outputId":"d15e62ae-79b9-42ea-a71e-bb4afe04dc83"},"source":["model.summary()"],"execution_count":7,"outputs":[{"output_type":"stream","text":["Model: \"model\"\n","_________________________________________________________________\n","Layer (type)                 Output Shape              Param #   \n","=================================================================\n","input_1 (InputLayer)         [(None, 32, 32, 3)]       0         \n","_________________________________________________________________\n","conv2d (Conv2D)              (None, 28, 28, 6)         456       \n","_________________________________________________________________\n","max_pooling2d (MaxPooling2D) (None, 14, 14, 6)         0         \n","_________________________________________________________________\n","conv2d_1 (Conv2D)            (None, 10, 10, 16)        2416      \n","_________________________________________________________________\n","max_pooling2d_1 (MaxPooling2 (None, 5, 5, 16)          0         \n","_________________________________________________________________\n","flatten (Flatten)            (None, 400)               0         \n","_________________________________________________________________\n","dense (Dense)                (None, 120)               48120     \n","_________________________________________________________________\n","dense_1 (Dense)              (None, 84)                10164     \n","_________________________________________________________________\n","dense_2 (Dense)              (None, 10)                850       \n","=================================================================\n","Total params: 62,006\n","Trainable params: 62,006\n","Non-trainable params: 0\n","_________________________________________________________________\n"],"name":"stdout"}]},{"cell_type":"code","metadata":{"colab":{"base_uri":"https://localhost:8080/","height":195},"id":"i0jKaUuYn7qx","executionInfo":{"status":"ok","tim
…
