…
아","photoUrl":"","userId":"05761503287783464441"}},"outputId":"904d3eda-d7ac-4b40-b733-c1029c170b7c"},"source":["model.summary()"],"execution_count":173,"outputs":[{"output_type":"stream","text":["Model: \"model_14\"\n","_________________________________________________________________\n","Layer (type)                 Output Shape              Param #   \n","=================================================================\n","input_16 (InputLayer)        [(None, 13)]              0         \n","_________________________________________________________________\n","dense_65 (Dense)             (None, 8)                 112       \n","_________________________________________________________________\n","batch_normalization_15 (Batc (None, 8)                 32        \n","_________________________________________________________________\n","activation_15 (Activation)   (None, 8)                 0         \n","_________________________________________________________________\n","dense_66 (Dense)             (None, 8)                 72        \n","_________________________________________________________________\n","batch_normalization_16 (Batc (None, 8)                 32        \n","_________________________________________________________________\n","activation_16 (Activation)   (None, 8)                 0         \n","_________________________________________________________________\n","dense_67 (Dense)             (None, 8)                 72        \n","_________________________________________________________________\n","batch_normalization_17 (Batc (None, 8)                 32        \n","_________________________________________________________________\n","activation_17 (Activation)   (None, 8)                 0         \n","_________________________________________________________________\n","dense_68 (Dense)             (None, 8)                 72        \n","_________________________________________________________________\n","batch_normalization_18 (Batc (None, 8)                 32        \n","_________________________________________________________________\n","activation_18 (Activation)   (None, 8)                 0         \n","_________________________________________________________________\n","dense_69 (Dense)             (None, 8)                 72        \n","_________________________________________________________________\n","batch_normalization_19 (Batc (None, 8)                 32        \n","_________________________________________________________________\n","activation_19 (Activation)   (None, 8)                 0         \n","_________________________________________________________________\n","dense_70 (Dense)             (None, 1)                 9         \n","=================================================================\n","Total params: 569\n","Trainable params: 489\n","Non-trainable params: 80\n","_________________________________________________________________\n"],"name":"stdout"}]},{"cell_type":"code","metadata":{"colab":{"base_uri":"https://localhost:8080/"},"id":"xk0OhtH5P0Bm","executionInfo":{"status":"ok","timestamp":16107194
…
