…
"안녕구름아","photoUrl":"","userId":"05761503287783464441"}},"outputId":"98862e65-0e85-45a5-ba02-218629c85798"},"source":["model.summary()"],"execution_count":5,"outputs":[{"output_type":"stream","text":["Model: \"model\"\n","_________________________________________________________________\n","Layer (type)                 Output Shape              Param #   \n","=================================================================\n","input_1 (InputLayer)         [(None, 28, 28, 1)]       0         \n","_________________________________________________________________\n","conv2d (Conv2D)              (None, 24, 24, 3)         78        \n","_________________________________________________________________\n","max_pooling2d (MaxPooling2D) (None, 12, 12, 3)         0         \n","_________________________________________________________________\n","conv2d_1 (Conv2D)            (None, 8, 8, 6)           456       \n","_________________________________________________________________\n","max_pooling2d_1 (MaxPooling2 (None, 4, 4, 6)           0         \n","_________________________________________________________________\n","flatten (Flatten)            (None, 96)                0         \n","_________________________________________________________________\n","dense (Dense)                (None, 84)                8148      \n","_________________________________________________________________\n","dense_1 (Dense)              (None, 10)                850       \n","=================================================================\n","Total params: 9,532\n","Trainable params: 9,532\n","Non-trainable params: 0\n","_________________________________________________________________\n"],"name":"stdout"}]},{"cell_type":"code","metadata":{"colab":{"base_uri":"https://localhost:8080/"},"id":"ZhshfRyPiqCl","executionInfo":{"status":"ok","timestamp":1610856
…
