…
erId":"05761503287783464441"}},"outputId":"72b7f867-8950-4513-97ac-9b2892d0e255"},"source":[" \r\n","# 모델 확인\r\n","model.summary()"],"execution_count":16,"outputs":[{"output_type":"stream","text":["Model: \"model_1\"\n","_________________________________________________________________\n","Layer (type)                 Output Shape              Param #   \n","=================================================================\n","input_2 (InputLayer)         [(None, 28, 28, 1)]       0         \n","_________________________________________________________________\n","conv2d_2 (Conv2D)            (None, 28, 28, 6)         156       \n","_________________________________________________________________\n","max_pooling2d_2 (MaxPooling2 (None, 14, 14, 6)         0         \n","_________________________________________________________________\n","conv2d_3 (Conv2D)            (None, 10, 10, 16)        2416      \n","_________________________________________________________________\n","max_pooling2d_3 (MaxPooling2 (None, 5, 5, 16)          0         \n","_________________________________________________________________\n","flatten_1 (Flatten)          (None, 400)               0         \n","_________________________________________________________________\n","dense_3 (Dense)              (None, 120)               48120     \n","_________________________________________________________________\n","dense_4 (Dense)              (None, 84)                10164     \n","_________________________________________________________________\n","dense_5 (Dense)              (None, 10)                850       \n","=================================================================\n","Total params: 61,706\n","Trainable params: 61,706\n","Non-trainable params: 0\n","_________________________________________________________________\n"],"name":"stdout"}]}]}